T1/TAD/chessboard pictures/camera_calibration_params.npz (npz, 2430 bytes, 5 tensors)

repError f8 []
0	0x3fbe4aecd54e4ee0	0.1183307667509399

camMatrix f8 [3, 3]
0	0x408dba3a1c8e57b4	951.2783747787967
1	0x0000000000000000	0.0
2	0x40833a9a02a3f421	615.325200348747
3	0x0000000000000000	0.0
4	0x408da658164132e8	948.7930111974392
5	0x407e1810a6618130	481.5040649231696
6	0x0000000000000000	0.0
7	0x0000000000000000	0.0
8	0x3ff0000000000000	1.0

distCoeff f8 [1, 5]
0	0x3fb7930b79b264af	0.09208747597803567
1	0xbfc5f83c4a3d7ec5	-0.1716380465031674
2	0x3f3fe128105dd74d	0.00048644283412301454
3	0xbf777099d6e73da9	-0.005722618995107545
4	0xbfb2af47694ac4b2	-0.07298704453093555

rvecs f8 [22, 3, 1]
0	0x3fbd6c391e26ab42	0.11493260370359074
1	0x3f8adad453d2e7c8	0.013112696464634768
2	0x3f4b31bcab597d74	0.0008299037205680552
3	0x3f878339983f66eb	0.011480760534982667
4	0x3f8c74e530c3ffb2	0.013894835043629292
5	0x3f911122c56d9cfb	0.016666930484828573
6	0x3f843ba76e34978e	0.009879406023695993
7	0x3fc36b2e34be66d5	0.15170838904741993
8	0x3f7db8591e513d17	0.0072558861912306516
9	0x3faa242538eb9038	0.05105701751543318
10	0xbfc02cdf38653f40	-0.12636938337026926
11	0x3fa179f7d2061a92	0.03413366736190428
12	0x3f45c320e6e4c602	0.0006641302732416923
13	0xbf73e872c6e06a19	-0.004860351893535974
14	0x3f83cf1fad859367	0.00967240093513917
15	0xbfc312096b323a40	-0.14898793920697706
16	0xbf26b56d1e192ded	-0.0001732536029969001
17	0x3f18bb9f7c3ed340	9.434853478647049e-05
18	0xbfc0b92f7b89f241	-0.1306514123169951
19	0xbf57953faade8017	-0.001439392256976651
20	0x3f5eef64f8376d66	0.001888130763169149
21	0x3fd3892350694d6e	0.30524523594541264
22	0xbf899c548c43326c	-0.012505207567664565
23	0x3f849db30c26a196	0.010066412742916236
24	0x3fd027fc431e1af7	0.25244051508381865
25	0xbf779c023f0154da	-0.0057640159357863156
26	0x3f80e91d2956814e	0.008257129501374163
27	0x3fd2016c5b546476	0.2813368694201651
28	0xbfacb1e3a78288a4	-0.05604468745993188
29	0xbfd35c9449038293	-0.3025255883240245
30	0x3fc4860272d95ce0	0.16033964736809647
31	0x3fc352c8dd22f07a	0.15096388623885898
32	0xbfd7dc706b6878e0	-0.3728295372874424
33	0x3fd301be1cc1e947	0.29698136146875637
34	0x3fc2fd59db9287ad	0.14835665913875343
35	0x3fd056833726207b	0.2552803076328087
36	0x3fd20e7dead3d82e	0.2821345132100558
37	0x3fbc558218e4f7ad	0.11067975147031346
38	0x3fce68276be85aff	0.23755352753570233
39	0x3fd01069cc2a3cfe	0.25100178659427275
40	0x3fb577b02b660b11	0.08385754642044342
41	0x3fca4379353268b6	0.20518412683015236
42	0x3faee785fefef2f2	0.06036013353102544
43	0xbfdc10bb47d80301	-0.4385212136840409
44	0xc008d481dea7dcbe	-3.1037633318879605
45	0x3f800d1559bc485f	0.007837454606065273
46	0xbfd8a04d967e3f35	-0.38478412338826057
47	0xc008dbc0d79fcd40	-3.1073014112131716
48	0x3f722a5304da394c	0.0044348948409960835
49	0xbfd44f3a4bdae140	-0.31733567626681136
50	0xc008ff56129728d1	-3.1246758892421913
51	0x3fd0989c9dc3cb33	0.25931468397827756
52	0xbfa032148f94a3f2	-0.03163208248799511
53	0x3f50f67775c6b107	0.0010353247263124603
54	0x3fd5d268431047ef	0.34096724080256896
55	0xbfa9913393c69ed5	-0.04993592432884745
56	0x3f992ac563b9595e	0.024577221118613372
57	0x3fcdfabd9eef9a92	0.23421449909729525
58	0xbfc6214e2107a4ad	-0.17289139378343546
59	0x3fb3d6ad15823fc9	0.07749444747082558
60	0x3fcf928d3d588e98	0.24665990348249944
61	0x3fc31175c13b55ae	0.14897033629556006
62	0x3ff9683c47380c72	1.5879481107702103
63	0x3fb5e8e4711a1523	0.08558490525509348
64	0xbf73e7015b6b3b2f	-0.004858975697699815
65	0x3ff944ac7c7c6a04	1.5792660582288827

tvecs f8 [22, 3, 1]
0	0xc02e8469b9c55c2b	-15.258619122831155
1	0xc025315f85885989	-10.596431897062546
2	0x404185b7acc96e92	35.04466781459372
3	0xc02ec5acb11ce8b6	-15.386083159235891
4	0xc024027533f35f6c	-10.004800437410914
5	0x4041a1d450c3b522	35.264291854439094
6	0xc02f84261aabc177	-15.758103211847567
7	0xc024f0613ff626cc	-10.469491957471654
8	0x4042e5615406906e	37.79203272171513
9	0xc02d9cf559d186c9	-14.806559378458944
10	0xc0256ac6b5e27128	-10.70854729069886
11	0x4040c6433f2aaf27	33.54892720779599
12	0xc030090df90eb888	-16.03536945924182
13	0xc024789152458795	-10.23548371409178
14	0x4045492c8c0b99ab	42.57167196813983
15	0xc030193341a5b2f1	-16.0984383611239
16	0xc020d518c3581695	-8.416204552176433
17	0x4044f4f07b99dbee	41.91358895313884
18	0xc030168d5bb18ed9	-16.08809445462143
19	0xc02384ce927c5519	-9.759388520886704
20	0x40448258037d162b	41.01831096275085
21	0xc0303e1f2c9385d7	-16.24266317941314
22	0xc022879876dfa0cd	-9.264835085676532
23	0x40431d5e98184710	38.229449283460895
24	0xc030320e9f13731f	-16.19553560471388
25	0xc0207193ca52891c	-8.221830675673623
26	0x4042efc6993ff517	37.87324824927253
27	0xc02fbc38f5cf7494	-15.86762207181372
28	0xc00683a2c498543e	-2.814275298975672
29	0x4042db46cc7ea8cf	37.7130981081442
30	0xc0303e0bd8acabf3	-16.242368261486217
31	0xc00aa2de22a8b556	-3.3295252521262837
32	0x40460f964608cf37	44.12177348547123
33	0xc0314bcb928a5410	-17.296075018664908
34	0xc026faf0f1531816	-11.49011949672062
35	0x40444e73c225780a	40.612907665534365
36	0xc031c7bd75029324	-17.780234635475736
37	0xc025cae53f77e55c	-10.89628027285169
38	0x404331e8cec348a0	38.3899172261747
39	0xc0308def0303c18c	-16.554428280274394
40	0xc025eed2891fd5cf	-10.966450009475833
41	0x40429c9611fe9c04	37.22332978183843
42	0x402f501853d28da5	15.656435603573138
43	0x4024f86b05546ce9	10.48519150405487
44	0x404256c5c2e932c4	36.67791019808422
45	0x4030de91b0266b8c	16.86941052377692
46	0x4022b3b6fa0bb7f2	9.351005376749502
47	0x40427023afa73e51	36.876089054738834
48	0x4030b229265850f8	16.6959403958908
49	0x40226507049bcee9	9.197319168109475
50	0x404211c29319c41e	36.13875044592008
51	0xc02cd638e6118384	-14.418402852666766
52	0xc024faf431b8caf5	-10.490144304092135
53	0x404282f015c38b01	37.02295181320188
54	0xc02c29e76f7adeed	-14.081843837498548
55	0xc0230648bfa4404a	-9.512273777771174
56	0x4041997a4d533fdb	35.199044862412585
57	0xc02b102e46371c25	-13.531603044726646
58	0xc021f873ad162d00	-8.985257538754468
59	0x40401daf75a4acd8	32.231917100341605
60	0x4011a3854814aa42	4.4096881163227994
61	0xc02087d37fff7a25	-8.265285491882489
62	0x40414e13e2a1d651	34.60998185064512
63	0x4015c1412379af28	5.43872504644586
64	0xc0237248dc625473	-9.72321213436428
65	0x4043f3cecd199152	39.904748570903976
